FastAPI_Deployment/2_deploy_dl_app/bank_note_model.ckpt (torch, 17151 bytes, 32 tensors)

model.hidden_layers.0.weight f4 [12, 4]
-0.44528505 -0.18188374 -0.13882299 -0.17295457 0.6406511 0.35808474 0.44639364 -0.065803945
0.06664352 -0.2701172 -0.7691867 0.14311592 0.31689605 0.36929852 0.35213953 0.25361085
0.093027346 0.3444744 0.15321444 -0.04339782 -0.33418107 -0.09198519 -0.035658274 0.63808036
0.5685966 0.3540476 0.115580514 0.57795566 0.52302176 0.13071132 0.23669931 0.18543448
0.60302013 0.21911632 0.007209825 -0.2401184 -0.5921257 0.008208901 0.051786337 0.3253868
0.20330298 0.44388625 0.24322252 0.37554455 0.6055807 0.19849832 0.32633835 -0.1490894
00000000: 67fc e3be bb3f 3abe 9d27 0ebe 011b 31be
00000010: b601 243f e256 b73e b58d e43e 38c4 86bd
00000020: 667c 883d cd4c 8abe 6be9 44bf fb8c 123e
00000030: 3340 a23e b214 bd3e a24b b43e 48d9 813e
00000040: 1f85 be3d f35e b03e 3fe4 1c3e eac1 31bd
00000050: c819 abbe bb62 bcbd 690e 12bd 3c59 233f
00000060: 8c8f 113f ba45 b53e 7ab5 ec3d e7f4 133f
00000070: c1e4 053f 30d9 053e 4e61 723e 89e2 3d3e
00000080: 875f 1a3f 0760 603e 6540 ec3b 99e1 75be
00000090: 8d95 17bf a07e 063c e91d 543d 1999 a63e
000000a0: a82e 503e 0f45 e33e 530f 793e 6047 c03e
000000b0: 5607 1b3f 2543 4b3e d215 a73e e4aa 18be

model.hidden_layers.0.bias f4 [12]
0.4501414 -0.04420842 0.5388031 0.13052157 -0.06664938 0.52712005 -0.53798777 0.18507385
0.15531108 0.3213145 -0.21332142 0.13177028
00000000: ef78 e63e e313 35bd 00ef 093f 72a7 053e
00000010: 787f 88bd 57f1 063f 91b9 09bf 0084 3d3e
00000020: de09 1f3e 5683 a43e ee70 5abe caee 063e

model.hidden_layers.1.weight f4 [8, 12]
0.23871468 -0.3772409 0.27678105 -0.2596556 0.11907389 0.46072575 -0.030128041 -0.22711961
-0.03248764 0.31623277 0.014174862 -0.1288246 -0.3312339 -0.049506843 -0.31420556 0.091876976
0.20390524 -0.10118855 -0.052501116 0.30725425 0.2581746 -0.1320923 0.35702616 0.3710479
0.020567646 0.24081758 -0.4877554 0.50913316 -0.05833634 -0.07780874 0.14647463 0.12606524
-0.00053032226 -0.19676778 0.39700145 0.43996745 -0.1454175 0.2845389 -0.2962402 0.46769825
0.0023305926 -0.21301879 0.108783506 0.18857184 0.0889148 0.08139312 0.35858276 0.26160318
-0.08650403 0.4970395 -0.17750297 0.052278224 -0.015026697 -0.2739447 -0.04470994 0.38646027
-0.06963941 -0.08426474 0.113950744 -0.035990704 -0.02022028 0.21470529 -0.1820609 0.13436508
0.17344244 -0.013292402 0.28080833 0.4090157 0.11205526 -0.058020074 0.16108038 0.36875865
0.44226912 -0.37581956 0.523638 -0.058075376 -0.16081381 0.2554845 -0.2232669 -0.26758355
0.16569912 0.4441988 0.039969794 -0.17412613 -0.011577226 0.52506715 -0.16481319 0.074438125
0.12324732 -0.024144925 0.15716505 0.4446104 -0.055920452 -0.09867426 0.3058995 0.24659154
00000000: 9f71 743e b825 c1be 3fb6 8d3e 94f1 84be
00000010: 03dd f33d 3fe4 eb3e 15cf f6bc 0b92 68be
00000020: c211 05bd 43e9 a13e ae3d 683c 99ea 03be
00000030: 7d97 a9be b0c7 4abd 8ddf a0be ff29 bc3d
00000040: 89cc 503e f13b cfbd 690b 57bd 6e50 9d3e
00000050: 762f 843e 3443 07be 22cc b63e fef9 bd3e
00000060: 7b7d a83c e298 763e 13bb f9be 8d56 023f
00000070: 16f2 6ebd 305a 9fbd 72fd 153e 3f17 013e
00000080: 5305 0bba 7e7d 49be c643 cb3e 6a43 e13e
00000090: 53e8 14be 15af 913e ccac 97be 2576 ef3e
000000a0: dbbc 183b 9921 5abe e3c9 de3d fa18 413e
000000b0: f618 b63d 70b1 a63d 2998 b73e daf0 853e
000000c0: 0629 b1bd f67b fe3e 57c3 35be b121 563d
000000d0: 8932 76bc 7b42 8cbe c521 37bd 1fde c53e
000000e0: 1b9f 8ebd fe92 acbd 025f e93d fd6a 13bd
000000f0: 00a5 a5bc b4db 5b3e 2c6e 3abe 0097 093e
00000100: e59a 313e 60c8 59bc 1cc6 8f3e 816a d13e
00000110: 3a7d e53d 75a6 6dbd 41f2 243e efcd bc3e
00000120: 1971 e23e 6c6b c0be 240d 063f 72e0 6dbd
00000130: 60ac 24be ddce 823e 14a0 64be b600 89be
00000140: 08ad 293e 066e e33e 5eb7 233d 1f4e 32be
00000150: 68ae 3dbc cd6a 063f cac4 28be 0473 983d
00000160: 1769 fc3d 94cb c5bc e0ef 203e f9a3 e33e
00000170: d80c 65bd bb15 cabd dc9e 9c3e 7e82 7c3e

model.hidden_layers.1.bias f4 [8]
0.33851707 -0.09624496 0.10156714 0.005758561 0.18835786 -0.19010983 0.32471344 -0.19454859
00000000: 1c52 ad3e 141c c5bd 6f02 d03d 50b2 bc3b
00000010: e2e0 403e 27ac 42be d740 a63e bf37 47be

model.hidden_layers.2.weight f4 [4, 8]
-0.07778206 -0.039298236 0.17650905 0.45611197 0.29063702 0.40037978 -0.12115105 0.2137484
0.82892305 -0.32047746 -0.09711962 -0.06377457 -0.21681619 -0.090480804 0.6542844 -0.2930109
-0.14736348 0.21352765 0.5971069 0.23761721 0.51204544 0.0034928834 -0.22351475 0.54438066
-0.08505325 0.13642798 0.37767094 0.27261028 0.31704527 0.23746525 -0.12428436 0.24974051
00000000: 334c 9fbd 30f7 20bd cabe 343e 8287 e93e
00000010: 60ce 943e 94fe cc3e 0b1e f8bd dce0 5a3e
00000020: 4d34 543f 9f15 a4be a7e6 c6bd 3e9c 82bd
00000030: 1005 5ebe 004e b9bd 2f7f 273f 8605 96be
00000040: 74e6 16be fea6 5a3e ffdb 183f ed51 733e
00000050: 6915 033f dce8 643b 0de1 64be 885c 0b3f
00000060: 6630 aebd c7b3 0b3e 165e c13e 9393 8b3e
00000070: c253 a23e 172a 733e cc88 febd fabb 7f3e

model.hidden_layers.2.bias f4 [4]
-0.17090937 0.7250544 -0.23471881 -0.17615063
00000000: de02 2fbe 2a9d 393f 215a 70be d560 34be

model.output.weight f4 [2, 4]
0.34257337 -0.24556641 0.6124708 0.33223265 -0.49770844 0.8738982 -0.10621561 -0.4859517
00000000: c765 af3e c375 7bbe e3ca 1c3f 661a aa3e
00000010: a4d3 febe cbb7 5f3f 9287 d9bd a9ce f8be

model.output.bias f4 [2]
-0.20939307 0.3507054
00000000: 236b 56be a88f b33e

exp_avg f4 [12, 4]
0.004342717 0.020218022 -0.01046774 -0.010627622 -0.00262415 -0.06395451 0.055608846 0.0014618144
0.022412958 0.013168393 -0.0048214444 0.0031602897 -0.024271458 -0.039172646 0.029840462 0.011383846
-0.0020880548 0.005499315 -0.006718801 -0.0050445357 0.0023654404 0.0021465332 -0.0018520979 -0.0005218411
-0.0035664483 0.0058794864 -0.008777128 -0.001005241 -0.013420798 -0.04580909 0.057768848 2.3993449e-05
-0.002163065 0.00014101897 -0.00027532736 -0.0003446305 0.0030601074 0.007199864 -0.0056187594 -0.0010271769
-0.011213304 0.00039483493 -0.006189883 0.00740499 -0.0012623823 -0.026789686 0.0212697 -0.010030206
00000000: 5a4d 8e3b 44a0 a53c e280 2bbc 7a1f 2ebc
00000010: eef9 2bbb 95fa 82bd 1ac6 633d 5a9a bf3a
00000020: 619b b73c 3ec0 573c 35fd 9dbb dd1c 4f3b
00000030: f0d4 c6bc 7f73 20bd fc73 f43c 5083 3a3c
00000040: bfd7 08bb 9933 b43b 6329 dcbb a24c a5bb
00000050: 8105 1b3b daac 0c3b 18c2 f2ba 2acc 08ba
00000060: 13bb 69bb b5a8 c03b f1cd 0fbc 4ac2 83ba
00000070: e8e2 5bbc 50a2 3bbd 079f 6c3d 8a45 c937
00000080: 35c2 0dbb 7ede 1339 d059 90b9 86af b4b9
00000090: 158c 483b d6ec eb3b 921d b8bb 56a2 86ba
000000a0: 01b8 37bc d901 cf39 81d4 cabb 8fa5 f23b
000000b0: 8576 a5ba 0b76 dbbc cb3d ae3c bc55 24bc

exp_avg_sq f4 [12, 4]
0.00031152493 0.004298867 0.0030494216 0.0014454141 0.0019040772 0.017289119 0.024913061 0.0028181789
0.0005308302 0.0011662547 0.00050716545 0.00040458617 0.00089572946 0.0041908515 0.0031799292 0.0013914013
0.00012370035 0.00031115368 0.00022256817 0.00014256069 0.00020817854 0.0015396086 0.003301508 8.174804e-05
0.00019354383 0.00059490267 0.0008681301 0.00014654109 0.0010981029 0.009901911 0.016178323 0.00088737643
3.35288e-05 0.0001673489 8.384192e-05 6.989825e-05 0.0003188063 0.0019680038 0.0030872845 0.00021396173
0.0008808526 0.002653874 0.0019720583 0.000893122 0.0009862834 0.01053873 0.013392631 0.002206742
00000000: 2b54 a339 83dd 8c3b ced8 473b 0d74 bd3a
00000010: 3b92 f93a e9a1 8d3c 7a16 cc3c 32b1 383b
00000020: 6927 0b3a 04dd 983a 4cf3 043a a31e d439
00000030: 63cf 6a3a 6953 893b 5c66 503b ae5f b63a
00000040: 8fb5 0139 5722 a339 3061 6939 587c 1539
00000050: 804a 5a39 b1cc c93a 1d5e 583b 2570 ab38
00000060: 07f2 4a39 3ef3 1b3a 3a93 633a d3a8 1939
00000070: 38ee 8f3a a03b 223c 6788 843c d39e 683a
00000080: 46a1 0c38 617a 2f39 4ad4 af38 5696 9238
00000090: 7525 a739 a0f9 003b 0a54 4a3b ea5a 6039
000000a0: 04e9 663a 9eec 2d3b a63d 013b 6720 6a3a
000000b0: 2e46 813a a3aa 2c3c c46c 5b3c fd9e 103b

exp_avg f4 [12]
-0.0031500785 0.015362766 0.002150108 0.0023550852 0.0015090345 -0.0008594406 -9.0654525e-05 0.011225229
-0.00059417525 -0.00040399525 0.0007479742 0.011327694
00000000: 8c71 4ebb 1cb4 7b3c d4e8 0c3b c657 1a3b
00000010: ccca c53a 154c 61ba c71d beb8 06ea 373c
00000020: 6dc2 1bba 53cf d3b9 b313 443a cb97 393c

exp_avg_sq f4 [12]
0.00014180999 0.0006063839 0.00012118302 0.00021668889 1.6329726e-05 0.000104023966 5.542039e-05 0.0005015008
7.767734e-06 0.00011271309 0.00017350484 0.0003597052
00000000: d4b2 1439 bcf5 1e3a a323 fe38 fb36 6339
00000010: d2fb 8837 7127 da38 3173 6838 2677 033a
00000020: 2a52 0237 6160 ec38 daee 3539 d196 bc39

exp_avg f4 [8, 12]
-0.00062137825 0.0032966982 0.00044192967 0.0060031344 0.006002832 -0.0012985803 0.00257351 0.00021129221
0.0071507064 -0.00181498 0.0010407766 0.00068931817 0.0003739463 -0.00029421313 -0.0009343615 -0.004045857
0.00048507287 0.00010794204 -0.0016241027 -0.00043255297 -0.0010215023 -0.00017586 -0.0006073753 -0.00047257883
0.0048320363 -0.001340525 -0.0017428786 -0.0046742703 -0.0005601938 0.0009893219 0.00035607346 0.0015409774
0.0045311 0.0018361951 0.00023131896 0.0027936194 0.005884993 0.00012712115 -0.0022598603 -0.006219907
-0.0019456954 0.0012124779 -0.0023412786 0.0012867941 -0.0028743476 0.0031173201 -0.0008436844 0.0032955103
0.0071826484 -0.0007045292 -4.83482e-05 -0.0011054282 0.0032937892 0.0011411366 -0.00039002887 0.0016318039
0.0064913845 0.0034229192 -0.00036870321 0.0016587565 0.006515584 0.0009793009 0.0005057336 -0.0025617408
0.0019213017 0.0012434865 -0.0008065716 0.0013047104 -0.0021058877 0.0022556602 0.00066486956 0.0016238188
-0.004094234 -0.0010460566 0.002972728 0.010112362 0.002647988 -0.0015183963 0.0026988296 -0.0027111757
0.0018368949 -0.002401974 0.0012685237 -0.005543189 0.006428572 0.0017746532 5.8339276e-05 -0.0024754356
0.00080628117 0.0012353474 -0.0027439909 0.0017687887 0.0030796912 0.0037213366 -0.0020699035 0.0025104184
00000000: fde3 22ba 6b0d 583b ccb2 e739 f1b5 c43b
00000010: 68b3 c43b 2035 aaba 55a8 283b 528e 5d39
00000020: 7950 ea3b 9fe4 edba ab6a 883a 5cb3 343a
00000030: 390e c439 9e40 9ab9 f0ef 74ba 1c93 84bb
00000040: 6151 fe39 f15e e238 d8df d4ba 47c8 e2b9
00000050: eee3 85ba 0f67 38b9 4438 1fba 75c4 f7b9
00000060: 0f56 9e3b 8eb4 afba 4d71 e4ba 9f2a 99bb
00000070: f8d9 12ba 22ac 813a 5faf ba39 9ffa c93a
00000080: 9f79 943b 7cac f03a 368e 7239 2815 373b
00000090: e6d6 c03b d34b 0539 2a1a 14bb 5dd0 cbbb
000000a0: b406 ffba 02ec 9e3a 2370 19bb a5a9 a83a
000000b0: 8d5f 3cbb f44b 4c3b b42a 5dba 7df9 573b
000000c0: 6c5c eb3b 27b0 38ba 7cc9 4ab8 04e4 90ba
000000d0: 9ddc 573b 3192 953a ca7c ccb9 41e2 d53a
000000e0: aeb5 d43b 0e53 603b 824e c1b9 a26a d93a
000000f0: ae80 d53b e35b 803a 3593 043a e1e2 27bb
00000100: 30d4 fb3a 7cfc a23a 1b70 53ba d102 ab3a
00000110: ef02 0abb b3d3 133b a44a 2e3a 51d6 d43a
00000120: ed28 86bb d61b 89ba 1ad2 423b 52ae 253c
00000130: de89 2d3b ed04 c7ba d9de 303b fbad 31bb
00000140: f7c3 f03a 706a 1dbb 9844 a63a a4a3 b5bb
00000150: c5a6 d23b 7b9b e83a 52b1 7438 eb3a 22bb
00000160: 9d5c 533a 61eb a13a 87d4 33bb b3d6 e73a
00000170: a5d4 493b abe1 733b 38a7 07bb d585 243b

exp_avg_sq f4 [8, 12]
0.0005177724 0.000105008345 0.00016401095 0.00024333141 0.0017655521 0.00018766988 0.00013702395 0.000102145954
0.0016147486 0.00033749558 0.00026868307 0.00048311942 1.7700188e-05 7.190335e-05 2.994871e-05 7.7103956e-05
0.00024672606 1.3023416e-05 4.865261e-05 3.8267957e-05 0.00038827365 2.9024082e-05 6.3938605e-05 8.548873e-05
0.00047939504 0.00040831367 0.00010857177 0.00016817123 0.00069882465 0.0001715679 0.00019454918 0.00016449916
0.0014990254 0.00022238687 0.00014535042 0.0003466361 0.00013400117 0.00021492277 9.7052376e-05 0.000107416134
0.00048149555 6.671197e-05 0.00012035689 9.8379845e-05 0.0009452513 0.00020065243 0.00011033994 0.00021938414
9.1251066e-05 0.00011144181 2.9744424e-05 4.9135448e-05 0.0001293761 3.1743508e-05 7.061093e-05 8.1422964e-05
0.0003106701 5.3008236e-05 4.2174535e-05 0.00015432473 0.00026829794 0.0002423686 0.00010163003 0.00010719896
0.0004569436 9.082925e-05 0.00011589864 8.4555984e-05 0.00073086715 0.00016449568 0.000110285575 0.00018517331
0.00036351295 0.00021015675 0.00017351647 0.00035290825 0.001022949 0.00016971536 0.00015965164 0.00011328735
0.002022152 0.00027285423 0.00029945213 0.0004047375 0.0006961761 0.00044537097 0.00019625836 0.00026351778
0.0010512699 0.00026070574 0.00025177113 0.00019832283 0.0014965293 0.00038057927 0.0002334623 0.00044173567
00000000: 1ebb 073a ed37 dc38 5bfa 2b39 c726 7f39
00000010: 196a e73a 40c9 4439 16ae 0f39 3137 d638
00000020: f9a5 d33a e4f1 b039 08de 8c39 314b fd39
00000030: dd7a 9437 d1ca 9638 5d3a fb37 dfb2 a138
00000040: 035b 8139 257f 5a37 5810 4c38 e881 2038
00000050: 3591 cb39 be78 f337 c716 8638 6a48 b338
00000060: 5057 fb39 ef12 d639 06b1 e338 1f57 3039
00000070: 5431 373a e8e6 3339 e6ff 4b39 687d 2c39
00000080: f27a c43a 8530 6939 3569 1839 b6bc b539
00000090: aa82 0c39 e45c 6139 9988 cb38 9944 e138
000000a0: 3d71 fc39 b7e7 8b38 1d68 fc38 4751 ce38
000000b0: beca 773a 3a66 5239 4e66 e738 7b0a 6639
000000c0: 0b5e bf38 deb5 e938 aa83 f937 c916 4e38
000000d0: 22a9 0739 5524 0538 f414 9438 9fc1 aa38
000000e0: 6fe1 a239 2955 5e38 90e4 3038 3bd2 2139
000000f0: 57aa 8c39 5324 7e39 3522 d538 01d0 e038
00000100: ef91 ef39 957b be38 9c0e f338 a653 b138
00000110: aa97 3f3a 797c 2c39 1e49 e738 152b 4239
00000120: e295 be39 865d 5c39 f9f1 3539 8b06 b939
00000130: 7914 863a 9ff5 3139 2968 2739 af94 ed38
00000140: 1586 043b e00d 8f39 c9ff 9c39 f332 d439
00000150: 967f 363a ae80 e939 b4ca 4d39 c228 8a39
00000160: c4ca 893a 55af 8839 2600 8439 e1f4 4f39
00000170: 3127 c43a 7c88 c739 8fcd 7439 c298 e739

exp_avg f4 [8]
0.0017062062 0.000274809 0.0033145926 0.0015764998 0.00519849 0.0026165438 -0.0038100034 0.003837039
00000000: c8a2 df3a 3d14 9039 a339 593b 8ea2 ce3a
00000010: 1858 aa3b 527a 2b3b 40b1 79bb d576 7b3b

exp_avg_sq f4 [8]
0.00038051634 5.7216006e-05 0.00026867865 0.00015995187 0.0001223288 0.00011301962 0.00031745608 0.0003201926
00000000: 0a80 c739 38fb 6f38 70dd 8c39 c1b8 2739
00000010: 6345 0039 f204 ed38 3c70 a639 86df a739

exp_avg f4 [4, 8]
0.0017609575 -0.0054103546 -0.000733846 -0.0024392596 -0.00050923665 -0.0008890406 0.0012479831 -0.00073215243
-0.003460546 0.00066741835 -0.002787899 0.0027612394 -0.0018543958 -0.00042972798 -0.0027718798 -0.0014415211
-0.00026041517 -0.0032620532 -0.0011277229 -0.005681217 -0.0010296403 -0.0023891313 -0.00094336184 -0.0008998219
0.0015464791 -0.00073955924 0.00083141174 -0.00030944517 -0.0008710079 0.0019235356 0.0024726249 0.0001875131
00000000: eecf e63a 5849 b1bb 925f 40ba fcdb 1fbb
00000010: 4b7e 05ba 810e 69ba 5d93 a33a ebed 3fba
00000020: 54ca 62bb b0f5 2e3a 2fb5 36bb e9f5 343b
00000030: 330f f3ba 1d4d e1b9 6da8 35bb 6cf1 bcba
00000040: 5588 88b9 2cc8 55bb 1ad0 93ba 8129 babb
00000050: fff4 86ba f992 1cbb f14b 77ba 07e2 6bba
00000060: 3ab3 ca3a fbde 41ba 19f3 593a 073d a2b9
00000070: 5a54 64ba 251f fc3a c30b 223b 2a9f 4439

exp_avg_sq f4 [4, 8]
0.00014792367 0.00052667665 0.000591451 0.00040768235 4.7380425e-05 0.0007311878 0.000275546 0.00053975766
0.00033978955 0.00052575464 0.00088719866 0.00073704374 5.954431e-05 0.00094807975 0.00076090125 0.00029283753
4.7009864e-05 0.00039000247 0.00035405933 0.00028492115 3.0315372e-05 0.0004070439 7.550058e-05 0.00028804233
0.00012768261 0.0008385902 0.00061204727 0.0004981748 4.4358254e-05 0.0009023883 0.0002641375 0.0007195322
00000000: f51b 1b39 ac10 0a3a 9b0b 1b3a 33be d539
00000010: 58ba 4638 2fad 3f3a 2877 9039 867e 0d3a
00000020: c825 b239 ccd2 093a e592 683a 2b36 413a
00000030: 37bf 7938 8e88 783a 3877 473a fd87 9939
00000040: 752c 4538 3f79 cc39 0aa1 b939 7861 9539
00000050: c44d fe37 8268 d539 1156 9e38 6304 9739
00000060: 8ae2 0539 d6d4 5b3a cc71 203a f297 023a
00000070: 500d 3a38 418e 6c3a ef7b 8a39 fd9e 3c3a

exp_avg f4 [4]
0.00035488227 -0.009209676 -0.002306907 0.0023575346
00000000: 7e0f ba39 2ee4 16bc 7a2f 17bb de80 1a3b

exp_avg_sq f4 [4]
0.00030310437 0.0008819339 0.00018366902 0.00039540252
00000000: fbe9 9e39 9531 673a 4797 4039 074e cf39

exp_avg f4 [2, 4]
-0.002404611 0.009474943 -0.0040808814 -0.0005974533 0.002404616 -0.009474931 0.004080891 0.0005974636
00000000: ae96 1dbb cb3c 1b3c eab8 85bb 6a9e 1cba
00000010: c396 1d3b be3c 1bbc ffb8 853b 1a9f 1c3a

exp_avg_sq f4 [2, 4]
0.00050800754 0.0022021078 0.00085832353 0.0007692031 0.0005080078 0.0022021076 0.0008583236 0.0007692037
00000000: cf2b 053a 3d51 103b 1e01 613a 59a4 493a
00000010: d42b 053a 3c51 103b 1f01 613a 63a4 493a

exp_avg f4 [2]
0.044035908 -0.044035904
00000000: ff5e 343d fe5e 34bd

exp_avg_sq f4 [2]
0.00405597 0.0040559694
00000000: f1e7 843b f0e7 843b

state f4 [12, 4]
-0.44528505 -0.18188374 -0.13882299 -0.17295457 0.6406511 0.35808474 0.44639364 -0.065803945
0.06664352 -0.2701172 -0.7691867 0.14311592 0.31689605 0.36929852 0.35213953 0.25361085
0.093027346 0.3444744 0.15321444 -0.04339782 -0.33418107 -0.09198519 -0.035658274 0.63808036
0.5685966 0.3540476 0.115580514 0.57795566 0.52302176 0.13071132 0.23669931 0.18543448
0.60302013 0.21911632 0.007209825 -0.2401184 -0.5921257 0.008208901 0.051786337 0.3253868
0.20330298 0.44388625 0.24322252 0.37554455 0.6055807 0.19849832 0.32633835 -0.1490894
00000000: 67fc e3be bb3f 3abe 9d27 0ebe 011b 31be
00000010: b601 243f e256 b73e b58d e43e 38c4 86bd
00000020: 667c 883d cd4c 8abe 6be9 44bf fb8c 123e
00000030: 3340 a23e b214 bd3e a24b b43e 48d9 813e
00000040: 1f85 be3d f35e b03e 3fe4 1c3e eac1 31bd
00000050: c819 abbe bb62 bcbd 690e 12bd 3c59 233f
00000060: 8c8f 113f ba45 b53e 7ab5 ec3d e7f4 133f
00000070: c1e4 053f 30d9 053e 4e61 723e 89e2 3d3e
00000080: 875f 1a3f 0760 603e 6540 ec3b 99e1 75be
00000090: 8d95 17bf a07e 063c e91d 543d 1999 a63e
000000a0: a82e 503e 0f45 e33e 530f 793e 6047 c03e
000000b0: 5607 1b3f 2543 4b3e d215 a73e e4aa 18be

state f4 [12]
0.4501414 -0.04420842 0.5388031 0.13052157 -0.06664938 0.52712005 -0.53798777 0.18507385
0.15531108 0.3213145 -0.21332142 0.13177028
00000000: ef78 e63e e313 35bd 00ef 093f 72a7 053e
00000010: 787f 88bd 57f1 063f 91b9 09bf 0084 3d3e
00000020: de09 1f3e 5683 a43e ee70 5abe caee 063e

state f4 [8, 12]
0.23871468 -0.3772409 0.27678105 -0.2596556 0.11907389 0.46072575 -0.030128041 -0.22711961
-0.03248764 0.31623277 0.014174862 -0.1288246 -0.3312339 -0.049506843 -0.31420556 0.091876976
0.20390524 -0.10118855 -0.052501116 0.30725425 0.2581746 -0.1320923 0.35702616 0.3710479
0.020567646 0.24081758 -0.4877554 0.50913316 -0.05833634 -0.07780874 0.14647463 0.12606524
-0.00053032226 -0.19676778 0.39700145 0.43996745 -0.1454175 0.2845389 -0.2962402 0.46769825
0.0023305926 -0.21301879 0.108783506 0.18857184 0.0889148 0.08139312 0.35858276 0.26160318
-0.08650403 0.4970395 -0.17750297 0.052278224 -0.015026697 -0.2739447 -0.04470994 0.38646027
-0.06963941 -0.08426474 0.113950744 -0.035990704 -0.02022028 0.21470529 -0.1820609 0.13436508
0.17344244 -0.013292402 0.28080833 0.4090157 0.11205526 -0.058020074 0.16108038 0.36875865
0.44226912 -0.37581956 0.523638 -0.058075376 -0.16081381 0.2554845 -0.2232669 -0.26758355
0.16569912 0.4441988 0.039969794 -0.17412613 -0.011577226 0.52506715 -0.16481319 0.074438125
0.12324732 -0.024144925 0.15716505 0.4446104 -0.055920452 -0.09867426 0.3058995 0.24659154
00000000: 9f71 743e b825 c1be 3fb6 8d3e 94f1 84be
00000010: 03dd f33d 3fe4 eb3e 15cf f6bc 0b92 68be
00000020: c211 05bd 43e9 a13e ae3d 683c 99ea 03be
00000030: 7d97 a9be b0c7 4abd 8ddf a0be ff29 bc3d
00000040: 89cc 503e f13b cfbd 690b 57bd 6e50 9d3e
00000050: 762f 843e 3443 07be 22cc b63e fef9 bd3e
00000060: 7b7d a83c e298 763e 13bb f9be 8d56 023f
00000070: 16f2 6ebd 305a 9fbd 72fd 153e 3f17 013e
00000080: 5305 0bba 7e7d 49be c643 cb3e 6a43 e13e
00000090: 53e8 14be 15af 913e ccac 97be 2576 ef3e
000000a0: dbbc 183b 9921 5abe e3c9 de3d fa18 413e
000000b0: f618 b63d 70b1 a63d 2998 b73e daf0 853e
000000c0: 0629 b1bd f67b fe3e 57c3 35be b121 563d
000000d0: 8932 76bc 7b42 8cbe c521 37bd 1fde c53e
000000e0: 1b9f 8ebd fe92 acbd 025f e93d fd6a 13bd
000000f0: 00a5 a5bc b4db 5b3e 2c6e 3abe 0097 093e
00000100: e59a 313e 60c8 59bc 1cc6 8f3e 816a d13e
00000110: 3a7d e53d 75a6 6dbd 41f2 243e efcd bc3e
00000120: 1971 e23e 6c6b c0be 240d 063f 72e0 6dbd
00000130: 60ac 24be ddce 823e 14a0 64be b600 89be
00000140: 08ad 293e 066e e33e 5eb7 233d 1f4e 32be
00000150: 68ae 3dbc cd6a 063f cac4 28be 0473 983d
00000160: 1769 fc3d 94cb c5bc e0ef 203e f9a3 e33e
00000170: d80c 65bd bb15 cabd dc9e 9c3e 7e82 7c3e

state f4 [8]
0.33851707 -0.09624496 0.10156714 0.005758561 0.18835786 -0.19010983 0.32471344 -0.19454859
00000000: 1c52 ad3e 141c c5bd 6f02 d03d 50b2 bc3b
00000010: e2e0 403e 27ac 42be d740 a63e bf37 47be

state f4 [4, 8]
-0.07778206 -0.039298236 0.17650905 0.45611197 0.29063702 0.40037978 -0.12115105 0.2137484
0.82892305 -0.32047746 -0.09711962 -0.06377457 -0.21681619 -0.090480804 0.6542844 -0.2930109
-0.14736348 0.21352765 0.5971069 0.23761721 0.51204544 0.0034928834 -0.22351475 0.54438066
-0.08505325 0.13642798 0.37767094 0.27261028 0.31704527 0.23746525 -0.12428436 0.24974051
00000000: 334c 9fbd 30f7 20bd cabe 343e 8287 e93e
00000010: 60ce 943e 94fe cc3e 0b1e f8bd dce0 5a3e
00000020: 4d34 543f 9f15 a4be a7e6 c6bd 3e9c 82bd
00000030: 1005 5ebe 004e b9bd 2f7f 273f 8605 96be
00000040: 74e6 16be fea6 5a3e ffdb 183f ed51 733e
00000050: 6915 033f dce8 643b 0de1 64be 885c 0b3f
00000060: 6630 aebd c7b3 0b3e 165e c13e 9393 8b3e
00000070: c253 a23e 172a 733e cc88 febd fabb 7f3e

state f4 [4]
-0.17090937 0.7250544 -0.23471881 -0.17615063
00000000: de02 2fbe 2a9d 393f 215a 70be d560 34be

state f4 [2, 4]
0.34257337 -0.24556641 0.6124708 0.33223265 -0.49770844 0.8738982 -0.10621561 -0.4859517
00000000: c765 af3e c375 7bbe e3ca 1c3f 661a aa3e
00000010: a4d3 febe cbb7 5f3f 9287 d9bd a9ce f8be

state f4 [2]
-0.20939307 0.3507054
00000000: 236b 56be a88f b33e
