FastAPI_Deployment/2_deploy_dl_app/note_detector.onnx (onnx, 4156 bytes, 10 tensors)

model.hidden_layers.0.weight f4 [24, 4]
00000000: 617e 67bf 99c8 34be f4ff 623d e130 3e3f
00000010: 3eaf f3be 27bf 38be c445 393e 31b1 343e
00000020: 4d98 1a3f 0ac2 8b3e 582b 123f fe3e 7cbd
00000030: ea8b 483f c2f9 2f3f f062 443f 01b6 883e
00000040: 7b88 92bf eec9 36be 1a7b ee3d 660b 633f
00000050: 39a2 373f 03bc 0b3f 7486 283f d992 573d
00000060: f391 273e fd24 093f 21ac cc3e e968 083f
00000070: 7057 ae3d a7ee ce3d a0cc 35bc a349 cc3e
00000080: 8ff9 283f 9b14 d23e 2eb4 353f 87e5 d73d
00000090: c451 333d bc34 d4be 7cfd 7ebf 77fa 9a3d
000000a0: 43e3 56bf 062d 0cbe d7d1 99be 5961 4c3f
000000b0: e514 b0bf a0b5 34bf b932 13bf 2a2c 9dbd
000000c0: 9f38 2d3f e89f dfbd 1ec8 cc3e e6d0 7b3d
000000d0: a486 91bf 628b bebe 3075 4ebe c002 a4bd
000000e0: 2bb8 af3d c7c4 663e 2e0d bd3d 3f7e 2a3f
000000f0: d3b2 89be 5def eabe af0d 14bf af0a 193f
00000100: 5ed0 1dbe 9c6e 6bbe f059 3c3d cd5f 143f
00000110: 550f 9abf c871 debe f51d b7be 42df 433e
00000120: 2c9d 90be f026 12bf dc02 48bf 5c9f d33d
00000130: 6ed2 3b3f 5017 f33e 0002 293f 184b 5f3b
00000140: acb6 3a3f b188 a6be 54c5 57bd ef8f efbc
00000150: f424 5ebf 147a 72be 002c 83be 6c73 883f
00000160: d0fd 503f b61b e23e 2646 2f3f f52c 84bd
00000170: 65c0 7dbf 0a33 b5be 54fd 05bf 080d 29bd
-0.90427214 -0.17654647 0.055419877 0.74293333 -0.47594637 -0.18041669 0.1809302 0.17645718
0.6038864 0.27296478 0.5709739 -0.06158351 0.7833849 0.68740475 0.76713467 0.26701358
-1.14479 -0.17850468 0.116445735 0.8868927 0.7173191 0.5458376 0.6583016 0.05263028
0.16364269 0.53572065 0.39975074 0.5328508 0.08512771 0.10104113 -0.01109615 0.3989993
0.66005796 0.41031346 0.7097806 0.10541826 0.04377915 -0.41446483 -0.99605536 0.07567304
-0.83940524 -0.1368905 -0.30042908 0.7983604 -1.3756377 -0.7058964 -0.5749927 -0.07674439
0.6766452 -0.109191716 0.39996427 0.061478518 -1.1369214 -0.37215716 -0.20161891 -0.08008337
0.08580049 0.22536002 0.092310295 0.66598886 -0.26894245 -0.45885745 -0.5783338 0.59781927
-0.15411517 -0.22991413 0.04598421 0.5795868 -1.2035929 -0.43446183 -0.35765043 0.19128135
-0.28244913 -0.57090664 -0.78129363 0.1033313 0.73367965 0.47478724 0.66018677 0.003407186
0.72934985 -0.32526162 -0.05267842 -0.029243438 -0.86775136 -0.23679382 -0.25619507 1.0660224
0.8163729 0.44161767 0.68466413 -0.064538874 -0.99121696 -0.35390502 -0.52339673 -0.041272193

model.hidden_layers.0.bias f4 [24]
00000000: b248 87be 3884 a4bf a26e cfbe c258 22bf
00000010: 16ab 86bf 04cb efbe 0108 4ebf a303 69bf
00000020: 054d d1be d3c7 783f 71b5 963e 9909 883d
00000030: b8f8 42be 3e81 dbbe 42d4 86bf 8478 2f3f
00000040: d0c9 c0be c495 95bd 9780 463f bcba c6be
00000050: 3177 76bf ebb0 3cbe 4272 9cbe 4cc1 cd3e
-0.2642265 -1.285285 -0.40514094 -0.63416684 -1.0520961 -0.46834576 -0.80480963 -0.91021174
-0.40879074 0.9717991 0.29435304 0.066424556 -0.19040191 -0.4287204 -1.0533526 0.6854327
-0.3765397 -0.07303956 0.7753996 -0.38814342 -0.9627562 -0.18426864 -0.30555922 0.40186536

model.hidden_layers.1.weight f4 [16, 24]
00000000: 8001 76be 7c88 92be bf3e 8ebe 1d4c 90be
00000010: 66a3 40be c39e 39bf 0b10 f1be af79 6f3d
00000020: 3c07 06bf 7da7 ce3e 30c2 d23e 29d8 d73e
00000030: 28d1 e5bd 04a8 39be a55d c0bc cfda d83e
00000040: 0afc 4a3d caf7 df3e d4cb 013f 4c85 2abf
00000050: 1e0f 38be fd75 933e a873 11bf c9d1 d93e
00000060: bb41 c3bd 3f44 e9bd a9d1 37bd 32fc 50be
00000070: fd09 543e 5b31 993d 03c3 53be 2b9c 04be
00000080: ef85 d9be c6fb 76bd 31fe 6fbe 7a8d 1abe
00000090: 8f73 9ebe 424f d23e 5999 39be 31ff b13d
000000a0: 5eb4 01be d6be 3b3d 54a0 11be a780 27be
000000b0: a18f f73d 121d 573e d65e d1bd eab6 fcbe
000000c0: 16f4 8ebe e2ee 78bd 82d1 ec3d 5f17 f53e
000000d0: 6122 78be 27cb 1a3e e249 a13e da74 463e
000000e0: bb18 d63d 8020 24be 6a4b 7ebe 8a71 50be
000000f0: 8d29 c63e c058 c9be d44f 2fbb 56bf f2bd
00000100: b173 95be 03db 2fbf e7a5 d0bd adce cc3d
00000110: 7f2e c4be 71dd 18bf fb4a c23e 1f63 c5be
00000120: db2a 8c3e 9063 1a3e b5f6 dcbb 44d4 0abf
00000130: 1405 0e3f 9eac 3cbe 73c9 41bf a7dc 52bd
00000140: 882d 8dbd 540d f33e e24d b63e 709a 8f3e
00000150: a613 36be 2159 1f3e c519 a7be bea3 ab3e
00000160: 5e7b c83d ea12 7d3f 38f1 393f 0580 a2bd
00000170: 9139 ddbd 44b0 453f 642f 84be 00a0 1b3f
00000180: e2ff c9bd 67cd 0cbd 3cef 54bd 6e21 573e
00000190: c820 9a3d bbcf c5be 0f15 33be 10c4 cdbd
000001a0: 82de 28be 0b8a 8dbd 48a1 da3c bda3 da3e
000001b0: 8a55 29bf cff6 c13e a769 9cbe b9cf 0d3e
000001c0: ec9a 1bbd 1c56 f7bd 8f93 bfbd 31f0 07bf
000001d0: ef66 d63b 1a1b 823e 0f69 9abe d486 2d3f
000001e0: 4721 543e 6ba4 913e 0772 a7be 4335 efbe
000001f0: 9805 c33e cda5 e6be a4b5 04bf 1a67 583e
00000200: 0b9e 27bf dd38 233e b683 373f 0a8c 4f3f
00000210: 7c34 aabb af54 50bd 1400 cbbe 9182 2d3f
00000220: 3fb5 163e d95e 1a3d 5b20 313f d515 a0be
00000230: 9fcc ca3c d24c 853e 0569 23bf 76db 7f3e
00000240: 7542 acbe b546 08be df33 0b3e 7ffe 523f
00000250: ea4b 82be 4452 ff3d 35c9 463e 13a0 bd3d
00000260: 2bf7 34be a7e7 84be 9f9d a8bd 67d0 0bbf
00000270: b8f1 0e3e 81cd 85be bccd a3bc 0c2b c1be
00000280: 7c46 403e a152 1fbf a7bc 67be f7b0 0f3f
00000290: 20ab 603e b69e 0dbf b1f4 903e decf 00bf
000002a0: 194f 29be 64a2 d7be adc6 0bbe 152e 313f
000002b0: c040 c9be 2cc7 b53d 0789 da3e 6110 7ebe
000002c0: d41c 27be c70c 05be 19c0 51be 2269 e9be
000002d0: 2bfd e1bd 6e80 2cbe 7c4c 10be 0f82 d3be
000002e0: 5c0d b23d 2d03 cbbe e80b 37be e18c cf3e
000002f0: 4c60 6c3e b8ee 04bf 9484 ae3e 8d81 74be
00000300: dbf7 6bbe 3cc7 c0be 174c cbbd 1bd0 cb3e
00000310: f95c 04be dcdc aa3e 8160 993e 2b66 f03d
00000320: a099 113f ae2c 91bd 4c2d acbe 0598 afbe
00000330: d978 8f3e 9298 b7be 5f20 203d 110e 83bd
00000340: c83f 8cbd e6bf fabe be5d fbbd 8cff c73e
00000350: 57a7 70be db20 3ebf 3fac aa3e ae7e 1dbe
00000360: 146c 043f 241c 503e 0e92 fbbc 10f4 47be
00000370: 5d31 dc3d 4627 a1be e3c7 323e 940a 0d3e
00000380: c0aa 92be 63d7 003f 5eb8 db3e ed86 543f
00000390: 3cd3 5fbd 674f eb3e 88ab 633d 2ed4 ab3e
000003a0: 5daa bf3d 54f4 253f 0d6e ea3e a393 2fbe
000003b0: 36cc 1b3d d841 283f 34fb acbe 0e90 333f
000003c0: 04c6 5d3e 290f f63d 5112 babd f608 10bf
000003d0: da87 17be 5feb 1abf 5758 ccbe f171 b03d
000003e0: d221 45be ecae bc3d 6596 123f 3954 973e
000003f0: 3c48 a7be 563e 883d 985b 3abe 2ebc 263f
-0.2402401 -0.28619754 -0.27782246 -0.2818307 -0.18812332 -0.72507876 -0.47082552 0.058465656
-0.5235479 0.40362158 0.41163778 0.42157105 -0.11221534 -0.18130499 -0.023482153 0.42354438
0.04955677 0.43743736 0.5070164 -0.66609645 -0.17974517 0.28800955 -0.568171 0.42542866
-0.095340215 -0.1138997 -0.044877682 -0.20408705 0.20706935 0.07480117 -0.2067986 -0.12950198
-0.42484996 -0.060298704 -0.2343681 -0.15093032 -0.3094754 0.41076094 -0.18124904 0.08691252
-0.12666461 0.045836292 -0.14221317 -0.1635767 0.12087942 0.21007183 -0.10223167 -0.49358302
-0.27920598 -0.06077469 0.11563398 0.47869393 -0.24231865 0.15116559 0.3150168 0.19380513
0.10453936 -0.16028023 -0.24833456 -0.20355812 0.38703576 -0.39325523 -0.0026750462 -0.11852901
-0.29189828 -0.6869356 -0.10187893 0.10000358 -0.38316724 -0.5971289 0.3794783 -0.38552186
0.27376446 0.15077043 -0.006743277 -0.5423014 0.554765 -0.18425223 -0.7569801 -0.05147996
-0.0689345 0.47471106 0.35606295 0.28047514 -0.17780933 0.15561344 -0.32636848 0.33523363
0.097891554 0.98856986 0.72633696 -0.07934574 -0.108019955 0.77222085 -0.25817406 0.60791016
-0.09863259 -0.034375574 -0.051985964 0.21008846 0.07525784 -0.38635048 -0.17488502 -0.100471616
-0.1649113 -0.06911095 0.026688233 0.42703047 -0.6614615 0.37883613 -0.30549356 0.13848771
-0.037989542 -0.12076971 -0.093543164 -0.5310088 0.0065430324 0.25411302 -0.30158278 0.67783856
0.2071582 0.28445753 -0.32704183 -0.46720323 0.38090205 -0.4504837 -0.5183966 0.2113308
-0.6547553 0.1593966 0.7168535 0.8107306 -0.005194245 -0.05086201 -0.39648497 0.67777354
0.14717577 0.03768811 0.69189996 -0.31266657 0.024755774 0.26035172 -0.6383212 0.24986061
-0.33644453 -0.13308223 0.13594006 0.8241958 -0.25448543 0.12466863 0.19412692 0.09259047
-0.17672412 -0.25957987 -0.08233189 -0.5461487 0.13959396 -0.2613335 -0.019995563 -0.37728155
0.18776888 -0.62235457 -0.22630559 0.561294 0.21940279 -0.553203 0.28311685 -0.5031718
-0.1653408 -0.42116082 -0.13650008 0.6921094 -0.39307213 0.0887588 0.4268267 -0.24810936
-0.16319591 -0.12993155 -0.20483436 -0.45588022 -0.11034616 -0.16845867 -0.14091676 -0.41310164
0.08693954 -0.3965086 -0.17875636 0.4053717 0.2308361 -0.51926756 0.34085524 -0.23877545
-0.23043768 -0.37652004 -0.09926622 0.3980721 -0.12926091 0.33371627 0.2995644 0.11738237
0.5687504 -0.070886 -0.3362831 -0.3429567 0.28021887 -0.3585859 0.03909337 -0.06399167
-0.06848103 -0.48974532 -0.12273739 0.39062154 -0.23501335 -0.74268883 0.33334538 -0.15380356
0.51727414 0.20323235 -0.030709293 -0.19526696 0.10751603 -0.31475276 0.17459063 0.13773566
-0.28645897 0.50328654 0.42914099 0.8301838 -0.05464481 0.45959017 0.055583507 0.33560318
0.09358666 0.6482594 0.45787087 -0.17146163 0.038036548 0.6572547 -0.33785403 0.70141685
0.21657568 0.1201461 -0.09085525 -0.56263673 -0.14797917 -0.605154 -0.39911148 0.086154826
-0.19251183 0.09213051 0.57260734 0.29556444 -0.32672298 0.06652515 -0.18199003 0.6513089

model.hidden_layers.1.bias f4 [16]
00000000: 90ae bc3e 02be 07bf 38e7 88bd d4d8 023f
00000010: b1bc b0be 05fa 843e d90f 09be 1b8a cbbd
00000020: 3955 d13b 52cd ed3e bd6d 6a3e 87ba 2f3f
00000030: b458 073e 9c16 00be 0660 1bbe 92ef cd3e
0.3685193 -0.53024304 -0.066847265 0.51112103 -0.3451896 0.25972 -0.13384952 -0.09938451
0.006388333 0.4644571 0.22893424 0.68643993 0.13217431 -0.12508625 -0.15173349 0.4022184

model.hidden_layers.2.weight f4 [8, 16]
00000000: cbd8 163f 2a6f e63e e040 42be feed c03e
00000010: 307e 933e f981 5e3f 5b63 b1be 271e f8be
00000020: d763 0abf 712c cc3e d5f4 913d ef34 d73e
00000030: 2ab0 5a3e 9814 06bf e328 0d3f 695a eb3e
00000040: eb83 babe 2279 97be e990 f73d 0160 20bf
00000050: 5f99 2dbe bef9 eabd 4153 7a3e 953f 483e
00000060: bc69 513e 369b d03d 59c5 eabe 4630 b4be
00000070: 4c1e 15bf a26a 573e 583c 08be ff53 96be
00000080: 2189 0c3f 52f0 85be ea55 54be be41 533f
00000090: edfd edbd ccb1 8e3e 2281 0ebe 358a 3bbe
000000a0: 20fa 87bd fdf4 0a3f 8b66 973d d59f 113f
000000b0: ba5a 4c3f b429 68bd 25d3 e63e 90ad 2d3f
000000c0: 11de 0e3f 2c26 3d3d bed5 8bbe 3270 283e
000000d0: 88a8 923e 9647 6d3f 9abe 96bd 0269 86be
000000e0: 9cf5 ebbe fc45 f63e 5186 203c 0f0a 5d3e
000000f0: 004d 383e 4699 87be e932 263e f0b3 3b3f
00000100: ca65 9cbd 82dd 73be 3451 6e3e dfb4 07be
00000110: 608c a7bd ecff b6be c52f 863e e831 803e
00000120: 8083 b73e 2cb0 cdbe 578f eabe 0921 08be
00000130: 3e72 ecbe ce6c 363e 3509 30be d379 0ebe
00000140: b638 e63e 89e6 193e 6aa4 29bf 1499 413e
00000150: bbd7 cb3e 4778 2b3f 5ffe b7be caaf b4be
00000160: 5bab 0ebf f971 5f3e 39e5 593e 894d 013f
00000170: cc3a cb3e 06ae dbbe db26 c53e 51ca e73e
00000180: 1638 063f a2b8 863e a431 93be 2e52 493e
00000190: f1ee 0f3d 4db6 d73e 0b49 00bf 5fe7 a2be
000001a0: f5b0 0dbf d7b4 833e 875a e13d 5a6b 823e
000001b0: 876f 943e 8f7d 00bf c0ac a73e 7e7d 9a3e
000001c0: 0152 243f 742a 96bd 78bb 8ebe f621 e23e
000001d0: 27bc a43e 3aa9 f0bc 7bb2 aebe 0461 5abe
000001e0: 736f d8be 4ff9 8c3e 30ae 973e f0ca 173e
000001f0: 8da5 083f 42e0 74be 317c 8d3e 3429 b93e
0.5892455 0.45006686 -0.1897006 0.37681574 0.2880721 0.8691707 -0.34646115 -0.48460504
-0.54058594 0.39877656 0.07126776 0.42032573 0.21356264 -0.52375174 0.55140513 0.45967415
-0.3642877 -0.29584605 0.12088186 -0.6264649 -0.16953038 -0.11473416 0.24445821 0.19555505
0.2045049 0.10185854 -0.4585369 -0.3519308 -0.58249354 0.21036771 -0.1330427 -0.2936096
0.5489674 -0.26159912 -0.20735899 0.8252219 -0.11620698 0.27870023 -0.13916448 -0.1831444
-0.066395044 0.5428007 0.073926054 0.5688451 0.7982594 -0.056680396 0.45082965 0.6784296
0.55807596 0.04617898 -0.2731151 0.16449049 0.28644204 0.92687356 -0.07360573 -0.2625199
-0.46085823 0.4810027 0.0097976485 0.21585868 0.17998123 -0.26484126 0.16230358 0.7332144
-0.07636602 -0.23814967 0.23273164 -0.1325259 -0.08181071 -0.35742128 0.2620832 0.25038075
0.35842514 -0.4017347 -0.45812485 -0.13293852 -0.4618091 0.17814943 -0.17191012 -0.1391366
0.44965142 0.15029348 -0.662665 0.18906051 0.39813027 0.66980404 -0.35936257 -0.35290366
-0.5573022 0.21820821 0.21278848 0.50508934 0.39693296 -0.42906207 0.38506207 0.45271543
0.5242933 0.2631274 -0.2874881 0.19660255 0.03513998 0.42131272 -0.50111455 -0.31817147
-0.5534814 0.25723907 0.11003595 0.25472528 0.2899134 -0.5019159 0.32748985 0.30173868
0.6418763 -0.07332316 -0.27877402 0.44166535 0.321748 -0.029377569 -0.34120545 -0.21326071
-0.4227253 0.27533957 0.29625082 0.14823508 0.5337761 -0.23913673 0.27633813 0.36164248

model.hidden_layers.2.bias f4 [8]
00000000: c9f9 4fbc 2edf c1be e428 953e 7e03 bb3e
00000010: 37fc 2bbe 88ca 00be 1549 2ebd 7d27 373d
-0.012693831 -0.37865585 0.2913276 0.36526102 -0.16795431 -0.1257726 -0.042550165 0.044715393

model.hidden_layers.3.weight f4 [4, 8]
00000000: 9153 ac3e fd76 6dbe 6406 8b3e 1599 933e
00000010: 0b94 16bf 8c4d c23e 851d e43e caa4 a83e
00000020: 5570 9fbe 020c 9b3e 9534 a5bf fccd e8be
00000030: 9476 9f3e 2fa3 12be fcf7 97be 4cb1 06bf
00000040: 3a43 213f 318d 85bd be9f 4a3e a5b5 d73e
00000050: 045a 49be 224b 163f e15b b73e 0e4a 033f
00000060: 4071 1c3f a5be fabd 1437 7a3e 7b8e 843e
00000070: 8373 d1bd 0e63 063f bfb4 123f 2a59 033f
0.33657506 -0.23189922 0.27153313 0.2882773 -0.58819646 0.3794979 0.44553772 0.32938224
-0.3114039 0.302826 -1.2906672 -0.45469654 0.31145155 -0.14320062 -0.29681385 -0.52614284
0.62993205 -0.06521071 0.197875 0.4213077 -0.19663244 0.58708394 0.35812286 0.51284873
0.61110306 -0.12243394 0.24435073 0.25889954 -0.1022711 0.52494895 0.57307047 0.5130793

model.hidden_layers.3.bias f4 [4]
00000000: 7ab1 8ebd fc01 803f 671e 25bc 94d9 f5bb
-0.06967445 1.0000606 -0.010078049 -0.007502744

model.output.weight f4 [2, 4]
00000000: 721f 05bf edd8 233f 665b e53c 861d 1cbf
00000010: e03f fe3e 7498 85bf 6598 343f 1e55 a13e
-0.52001107 0.6400288 0.027997684 -0.6098255 0.49658108 -1.043715 0.70545036 0.31510252

model.output.bias f4 [2]
00000000: 458a c13f 8c34 b0bf
1.5120322 -1.3766036
