FastAPI_Deployment/deploy_dl_app/bank_note_model.onnx (onnx, 1816 bytes, 8 tensors)

model.hidden_layers.0.bias f4 [12]
0.4501414 -0.04420842 0.5388031 0.13052157 -0.06664938 0.52712005 -0.53798777 0.18507385
0.15531108 0.3213145 -0.21332142 0.13177028
00000000: ef78 e63e e313 35bd 00ef 093f 72a7 053e
00000010: 787f 88bd 57f1 063f 91b9 09bf 0084 3d3e
00000020: de09 1f3e 5683 a43e ee70 5abe caee 063e

model.hidden_layers.1.bias f4 [8]
0.33851707 -0.09624496 0.10156714 0.005758561 0.18835786 -0.19010983 0.32471344 -0.19454859
00000000: 1c52 ad3e 141c c5bd 6f02 d03d 50b2 bc3b
00000010: e2e0 403e 27ac 42be d740 a63e bf37 47be

model.hidden_layers.2.bias f4 [4]
-0.17090937 0.7250544 -0.23471881 -0.17615063
00000000: de02 2fbe 2a9d 393f 215a 70be d560 34be

model.output.bias f4 [2]
-0.20939307 0.3507054
00000000: 236b 56be a88f b33e

onnx::MatMul_24 f4 [4, 12]
-0.44528505 0.6406511 0.06664352 0.31689605 0.093027346 -0.33418107 0.5685966 0.52302176
0.60302013 -0.5921257 0.20330298 0.6055807 -0.18188374 0.35808474 -0.2701172 0.36929852
0.3444744 -0.09198519 0.3540476 0.13071132 0.21911632 0.008208901 0.44388625 0.19849832
-0.13882299 0.44639364 -0.7691867 0.35213953 0.15321444 -0.035658274 0.115580514 0.23669931
0.007209825 0.051786337 0.24322252 0.32633835 -0.17295457 -0.065803945 0.14311592 0.25361085
-0.04339782 0.63808036 0.57795566 0.18543448 -0.2401184 0.3253868 0.37554455 -0.1490894
00000000: 67fc e3be b601 243f 667c 883d 3340 a23e
00000010: 1f85 be3d c819 abbe 8c8f 113f c1e4 053f
00000020: 875f 1a3f 8d95 17bf a82e 503e 5607 1b3f
00000030: bb3f 3abe e256 b73e cd4c 8abe b214 bd3e
00000040: f35e b03e bb62 bcbd ba45 b53e 30d9 053e
00000050: 0760 603e a07e 063c 0f45 e33e 2543 4b3e
00000060: 9d27 0ebe b58d e43e 6be9 44bf a24b b43e
00000070: 3fe4 1c3e 690e 12bd 7ab5 ec3d 4e61 723e
00000080: 6540 ec3b e91d 543d 530f 793e d215 a73e
00000090: 011b 31be 38c4 86bd fb8c 123e 48d9 813e
000000a0: eac1 31bd 3c59 233f e7f4 133f 89e2 3d3e
000000b0: 99e1 75be 1999 a63e 6047 c03e e4aa 18be

onnx::MatMul_25 f4 [12, 8]
0.23871468 -0.3312339 0.020567646 -0.1454175 -0.08650403 -0.02022028 0.44226912 -0.011577226
-0.3772409 -0.049506843 0.24081758 0.2845389 0.4970395 0.21470529 -0.37581956 0.52506715
0.27678105 -0.31420556 -0.4877554 -0.2962402 -0.17750297 -0.1820609 0.523638 -0.16481319
-0.2596556 0.091876976 0.50913316 0.46769825 0.052278224 0.13436508 -0.058075376 0.074438125
0.11907389 0.20390524 -0.05833634 0.0023305926 -0.015026697 0.17344244 -0.16081381 0.12324732
0.46072575 -0.10118855 -0.07780874 -0.21301879 -0.2739447 -0.013292402 0.2554845 -0.024144925
-0.030128041 -0.052501116 0.14647463 0.108783506 -0.04470994 0.28080833 -0.2232669 0.15716505
-0.22711961 0.30725425 0.12606524 0.18857184 0.38646027 0.4090157 -0.26758355 0.4446104
-0.03248764 0.2581746 -0.00053032226 0.0889148 -0.06963941 0.11205526 0.16569912 -0.055920452
0.31623277 -0.1320923 -0.19676778 0.08139312 -0.08426474 -0.058020074 0.4441988 -0.09867426
0.014174862 0.35702616 0.39700145 0.35858276 0.113950744 0.16108038 0.039969794 0.3058995
-0.1288246 0.3710479 0.43996745 0.26160318 -0.035990704 0.36875865 -0.17412613 0.24659154
00000000: 9f71 743e 7d97 a9be 7b7d a83c 53e8 14be
00000010: 0629 b1bd 00a5 a5bc 1971 e23e 68ae 3dbc
00000020: b825 c1be b0c7 4abd e298 763e 15af 913e
00000030: f67b fe3e b4db 5b3e 6c6b c0be cd6a 063f
00000040: 3fb6 8d3e 8ddf a0be 13bb f9be ccac 97be
00000050: 57c3 35be 2c6e 3abe 240d 063f cac4 28be
00000060: 94f1 84be ff29 bc3d 8d56 023f 2576 ef3e
00000070: b121 563d 0097 093e 72e0 6dbd 0473 983d
00000080: 03dd f33d 89cc 503e 16f2 6ebd dbbc 183b
00000090: 8932 76bc e59a 313e 60ac 24be 1769 fc3d
000000a0: 3fe4 eb3e f13b cfbd 305a 9fbd 9921 5abe
000000b0: 7b42 8cbe 60c8 59bc ddce 823e 94cb c5bc
000000c0: 15cf f6bc 690b 57bd 72fd 153e e3c9 de3d
000000d0: c521 37bd 1cc6 8f3e 14a0 64be e0ef 203e
000000e0: 0b92 68be 6e50 9d3e 3f17 013e fa18 413e
000000f0: 1fde c53e 816a d13e b600 89be f9a3 e33e
00000100: c211 05bd 762f 843e 5305 0bba f618 b63d
00000110: 1b9f 8ebd 3a7d e53d 08ad 293e d80c 65bd
00000120: 43e9 a13e 3443 07be 7e7d 49be 70b1 a63d
00000130: fe92 acbd 75a6 6dbd 066e e33e bb15 cabd
00000140: ae3d 683c 22cc b63e c643 cb3e 2998 b73e
00000150: 025f e93d 41f2 243e 5eb7 233d dc9e 9c3e
00000160: 99ea 03be fef9 bd3e 6a43 e13e daf0 853e
00000170: fd6a 13bd efcd bc3e 1f4e 32be 7e82 7c3e

onnx::MatMul_26 f4 [8, 4]
-0.07778206 0.82892305 -0.14736348 -0.08505325 -0.039298236 -0.32047746 0.21352765 0.13642798
0.17650905 -0.09711962 0.5971069 0.37767094 0.45611197 -0.06377457 0.23761721 0.27261028
0.29063702 -0.21681619 0.51204544 0.31704527 0.40037978 -0.090480804 0.0034928834 0.23746525
-0.12115105 0.6542844 -0.22351475 -0.12428436 0.2137484 -0.2930109 0.54438066 0.24974051
00000000: 334c 9fbd 4d34 543f 74e6 16be 6630 aebd
00000010: 30f7 20bd 9f15 a4be fea6 5a3e c7b3 0b3e
00000020: cabe 343e a7e6 c6bd ffdb 183f 165e c13e
00000030: 8287 e93e 3e9c 82bd ed51 733e 9393 8b3e
00000040: 60ce 943e 1005 5ebe 6915 033f c253 a23e
00000050: 94fe cc3e 004e b9bd dce8 643b 172a 733e
00000060: 0b1e f8bd 2f7f 273f 0de1 64be cc88 febd
00000070: dce0 5a3e 8605 96be 885c 0b3f fabb 7f3e

onnx::MatMul_27 f4 [4, 2]
0.34257337 -0.49770844 -0.24556641 0.8738982 0.6124708 -0.10621561 0.33223265 -0.4859517
00000000: c765 af3e a4d3 febe c375 7bbe cbb7 5f3f
00000010: e3ca 1c3f 9287 d9bd 661a aa3e a9ce f8be
